VQC/qiskit-notebook/saved/model1b-qiskit/weights_0_17.npz (npz, 412 bytes, 1 tensors)

weights f8 [18]
000000 83 7f 88 5e e0 2e ef bf 56 4a f2 ee 2b 5c e8 3f
       -0.9744722219802359 0.7612514178202427
000010 a0 45 89 61 4d 07 a1 bf c0 4a d0 e1 05 f2 f2 bf
       -0.033258836895252886 -1.1840876408429466
000020 5a cf 8d 14 17 0c e4 bf f4 14 fe 63 5a 34 e3 3f
       -0.626475849289345 0.6001407578447968
000030 4a 7b 1a d0 d1 74 e4 bf 73 20 5e d7 be b9 93 3f
       -0.6392602028389345 0.0192632502508165
000040 83 30 f8 e2 a7 f3 e0 3f 43 af d5 53 1d 47 c7 3f
       0.5297431405065399 0.18185774415484887
000050 78 79 60 8e 64 02 ea bf f5 c8 5f 12 29 06 ca bf
       -0.8127920895383758 -0.20331300160575663
000060 3b ab a9 2c c1 30 c2 3f 11 79 04 7c 92 db d7 bf
       0.14211287194060582 -0.37277662383157045
000070 fb 65 62 7f 24 5d d2 bf 00 6d 73 09 b2 b6 ab 3f
       -0.2869349712360358 0.054128230718299974
000080 b7 b2 f7 63 43 8f e4 3f a7 ca 57 7a 66 ea ec 3f
       0.6424881889812103 0.903613318396613
