VQC/qiskit-notebook/saved/model1b-qiskit/weights_0_3.npz (npz, 412 bytes, 1 tensors)

weights f8 [18]
-0.5442982229835256 0.48767587240698873 0.13301633614869343 -0.9723740611226735 -0.2808272131069656 0.8147214176637714 -0.991588979525408 -0.21549733110234523
0.631485208019522 -0.21161955896142184 -0.5611937179821562 -0.03635763358364138 0.7346979621773397 -0.5287218682954054 -0.22050805848978774 -0.2156927164760137
1.1044479626959727 1.101865957364196
00000000: 6a86 5f1b e46a e1bf 8052 c2dc 1436 df3f
00000010: 23d3 cbe6 ad06 c13f d104 0035 b01d efbf
00000020: 65c2 07b4 12f9 d1bf d6ee 86a6 3212 ea3f
00000030: 2c57 c4cf 18bb efbf 93dc baa2 6a95 cbbf
00000040: 5740 8b77 2035 e43f c174 7786 5916 cbbf
00000050: 3c87 2e87 4cf5 e1bf 0b44 67be 779d a2bf
00000060: 24aa ff4c a582 e73f f847 a01f 4aeb e0bf
00000070: 7dea dba9 9b39 ccbf 0bfc 9fa5 d19b cbbf
00000080: c69b 7ea0 d1ab f13f 7c47 b732 3ea1 f13f
