VQC/qiskit-notebook/saved/model1b-qiskit/weights_0_26.npz (npz, 412 bytes, 1 tensors)

weights f8 [18]
0	0xbfe5366a51d67449	-0.6628924940483866
1	0x3fe5971b083241bd	0.674695507057599
2	0xbf600753ec7b0cb0	-0.001956619180278084
3	0xbff63b4c8088999b	-1.389477254947997
4	0xbfe8a3fa3ba44e1f	-0.770016781318592
5	0x3fdd4ceff7d5cd51	0.4578208847298884
6	0xbfe41a19bce00739	-0.6281861008612629
7	0xbfabc5c3b45c37b9	-0.05424319817221552
8	0x3fe2bc4a8687c509	0.5854847552820114
9	0x3fcd5c3f3c860ae9	0.22937765555624104
10	0xbfe839c1ead0e4f1	-0.7570504747629042
11	0xbfb88b8ec47d18a0	-0.09587948128782608
12	0x3fd7bda4b0557222	0.3709499094018459
13	0xbfe36f75a48c5aaf	-0.6073559011300257
14	0xbfd597b0d6c617f2	-0.33738347028736293
15	0x3f9929dbc79f7b72	0.024573740061778655
16	0x3fe8bae45af25abf	0.7728139663984946
17	0x3fea019c552291e1	0.8126966154855461
