VQC/qiskit-notebook/saved/model1b-qiskit/weights_0_7.npz (npz, 412 bytes, 1 tensors)

weights f8 [18]
-0.8010878243818798 0.859443082970487 -0.12377326524966081 -1.2291636625210278 -0.6153723689334533 0.5579318162654171 -0.5420662145337763 -0.09545081121955917
0.7515317279023079 -0.013817484650502428 -0.8957388738086439 -0.03128872286599942 0.3629307516138414 -0.271932266897051 -0.3405545783725738 0.11885243935047393
0.7326807521324743 0.8450763559658419
00000000: f634 deee 82a2 e9bf 8736 c4c7 8e80 eb3f
00000010: 20ce 5dce 9aaf bfbf af59 3f84 a7aa f3bf
00000020: 9fcc ed64 21b1 e3bf 4940 08d3 93da e13f
00000030: 050d f63e 9b58 e1bf a48e 90e0 766f b8bf
00000040: a6e5 2744 8c0c e83f 24c0 7e65 574c 8cbf
00000050: a972 1892 e4a9 ecbf b7da e252 1305 a0bf
00000060: b939 39e7 413a d73f d532 4398 5667 d1bf
00000070: df3f 276e a5cb d5bf 4e63 0f0c 1d6d be3f
00000080: 442a 9ae7 1e72 e73f 6ce0 ef91 dd0a eb3f
