VQC/qiskit-notebook/saved/model1b-qiskit/weights_0_4.npz (npz, 412 bytes, 1 tensors)

weights f8 [18]
0	0xbfdf27e2b0daae19	-0.48680941840095354
1	0x3fe171fd3153589d	0.5451646769895607
2	0x3fc86278f2949099	0.19050514073126548
3	0xbfed46bd720dd574	-0.9148852565401016
4	0xbfcc965a5c46c754	-0.22333840852439357
5	0x3febe92569791e33	0.8722102222463434
6	0xbfede4260cd227cf	-0.934100174942836
7	0xbfc4399f96f21f1d	-0.15800852651977318
8	0x3fe60c133a7d6fb4	0.688974012602094
9	0xbfc3ba8e7aaeb74b	-0.1541307543788498
10	0xbfe01e59c43c57df	-0.5037049133995842
11	0xbfb80651f6c51cf1	-0.09384643816621342
12	0x3fe5abb28a0d7ac7	0.6772091575947677
13	0xbfe2c23ce2927755	-0.5862106728779773
14	0xbfd1cab35ad253f9	-0.27799686307235977
15	0xbfd17bce58b45cc0	-0.27318152105858573
16	0x3ff0c0583f058417	1.0469591581134006
17	0x3ff28cb794305f2b	1.1593547619467681
