VQC/qiskit-notebook/saved/model1b-qiskit/weights_0_2.npz (npz, 412 bytes, 1 tensors)

weights f8 [18]
0	0xbfe1421ca87a1b19	-0.5393203058782517
1	0x3fdf87a3c28d2921	0.4926537895122625
2	0x3fc1a9cbb2618065	0.13799425325396722
3	0xbfeef4e8c21a9980	-0.9673961440173997
4	0xbfd24aa199d29906	-0.2858051302122394
5	0x3fea3afa196c5a27	0.8196993347690452
6	0xbfefe3e042a9c27d	-0.9965668966306819
7	0xbfcc38886e5089d5	-0.22047524820761902
8	0x3fe45de7ea70aba8	0.6364631251247959
9	0xbfcbb977520d2203	-0.21659747606669563
10	0xbfe1cc8514491beb	-0.5562158008768824
11	0xbfa529eeecbdf915	-0.04133555068891518
12	0x3fe7ab6cbfe51575	0.7396758792826136
13	0xbfe114119285b349	-0.5336997854006792
14	0xbfccdcb9757197bf	-0.22548597559506153
15	0xbfcc3eef7135a94d	-0.2206706335812875
16	0x3ff1976de70be61e	1.099470045590699
17	0x3ff18cda794491d4	1.0968880402589223
