VQC/qiskit-notebook/saved/model1b-qiskit/weights_0_36.npz (npz, 412 bytes, 1 tensors)

weights f8 [18]
00000000: d3d3 f472 7d26 e4bf 3b43 0f57 db68 e73f
00000010: 3496 df32 a8ce c63f 8ffc 07d7 53a0 f5bf
00000020: 8561 b3f4 3ece e9bf 8d2c 4131 36dc db3f
00000030: 7bbd ba54 264f e3bf 1500 af81 ac8b 9b3f
00000040: 93a6 3a4f 7e42 e03f 21e6 2b71 f2b5 d83f
00000050: f1aa 7b8b 06af e6bf 1777 9464 43d4 b03f
00000060: eb80 174c 230d d63f 87cf e2d6 e85b eabf
00000070: dbd6 1b4a d2bd dbbf 8008 9028 92ba c93f
00000080: 9b65 2d04 8fb8 e33f d7c2 e566 97ef ec3f
-0.6296984906426765 0.7315499019988246 0.1781816719441608 -1.3516424560218956 -0.8064265040693931 0.43531565485017937 -0.6034118323204177 0.02690000096822594
0.5081168696826402 0.3861051659765469 -0.7088654255179262 0.06573888021054262 0.3445518725475398 -0.8237194249145298 -0.43346078145201056 0.20100619297597078
0.6162791329945095 0.9042469987599259
