VQC/qiskit-notebook/saved/model1b-qiskit/weights_0_10.npz (npz, 412 bytes, 1 tensors)

weights f8 [18]
00000000: 932f e66e 517b ecbf 32e8 1eda a787 e93f
00000010: 5af2 3b9c 4dd2 a1bf 25f5 ed63 a192 f3bf
00000020: b495 90a5 2de1 e3bf e63a 1053 62b3 e43f
00000030: 1ad6 987f a788 e1bf 2e03 e023 2d3d af3f
00000040: 9fd3 d795 ca0a e33f 1c5c e842 4142 c23f
00000050: 94a9 7551 d879 ecbf ccfe f88d 4b08 c8bf
00000060: 7c44 29e7 a488 d13f 7ecf 8d73 2459 d5bf
00000070: 36a3 dc92 d7d9 d1bf a81a f906 bbec bc3f
00000080: a72f 9267 5099 e43f 81a9 92d2 e93a eb3f
-0.8900534788131033 0.7978095302744406 -0.034807610818437154 -1.2232984450814197 -0.6212375863730615 0.6468974706966406 -0.5479314319733846 0.061013613347319015
0.5950673033354298 0.14264693991637578 -0.8898736563690357 -0.18775314743287763 0.27396509718261775 -0.3335658195930974 -0.27892102567652743 0.11298722191086574
0.6437150977012508 0.8509415734054501
