VQC/qiskit-notebook/saved/model1b-qiskit/weights_0_8.npz (npz, 412 bytes, 1 tensors)

weights f8 [18]
0	0xbfeb26f04f3396cf	-0.8485032603172956
1	0x3fed04fc28199860	0.9068585189059029
2	0xbfb38c2fcbb2bf54	-0.0763578293142449
3	0xbff2e870d414a8c2	-1.1817482265856118
4	0xbfe5358ec5432e78	-0.6627878048688691
5	0x3fe35f01335da222	0.605347252200833
6	0xbfe2dd089f4b6ede	-0.5894816504691922
7	0xbfa89817bbcaffb1	-0.04803537528414326
8	0x3fe6881ee3d283cd	0.7041162919668921
9	0x3fa133c02bf66d8e	0.03359795128491348
10	0xbfeb257731c310d0	-0.8483234378732281
11	0xbfb425f4ac1c7c27	-0.07870415880141533
12	0x3fd43167268e7606	0.3155153156784255
13	0xbfccbcf7af30de44	-0.2245168309616351
14	0xbfd8d4802ed20392	-0.3879700143079897
15	0x3fb249b209645482	0.07143700341505801
16	0x3fe5edb18744c86b	0.6852653161970584
17	0x3fec8f4af2454245	0.8924917919012577
