VQC/qiskit-notebook/saved/model1b-qiskit/weights_0_19.npz (npz, 412 bytes, 1 tensors)

weights f8 [18]
000000 16 f2 fb 64 95 85 ec bf 07 33 f5 64 ec 08 e9 3f
       -0.891306588396733 0.7823392841179108
000010 32 91 3f 37 62 8d a9 3f 19 bf d1 1c 66 48 f3 bf
       0.049906796688249946 -1.2051755071406147
000020 a9 e6 8a 9e 56 5f e3 bf 43 2c fb ed 99 87 e2 3f
       -0.605387982991677 0.5790528915471288
000030 99 92 17 5a 11 c8 e3 bf 4c e3 8c 16 e8 5b b0 bf
       -0.6181723365412665 -0.06390238333268633
000040 f0 bd 84 dc f2 9c e3 3f 7c f2 03 9d 24 f6 d0 3f
       0.6129087740900427 0.2650233777383517
000050 0b ec d3 94 19 59 e7 bf ba 6b 6b ea 2a b9 cc bf
       -0.729626455954873 -0.22440086790342467
000060 f0 e0 db 12 ed d5 cc 3f eb 93 1d 6f 28 2e dd bf
       0.22527850552410866 -0.45594225741507327
000070 99 94 5c 93 a3 03 d1 bf ee e1 44 a9 aa ea a0 3f
       -0.2658471049383678 0.03304036442063195
000080 06 ca f4 ed 82 e2 e3 3f 3a 3d cb 80 1b 41 ea 3f
       0.6214003226835423 0.8204476848131101
