VQC/qiskit-notebook/saved/model1b-qiskit/weights_0_35.npz (npz, 412 bytes, 1 tensors)

weights f8 [18]
-0.6845101435884432 0.6767382490530579 0.12337001899839403 -1.4064541089676623 -0.8612381570151598 0.4901273077959461 -0.6582234852661845 -0.027911651977540804
0.45330521673687346 0.3312935130307802 -0.7636770784636929 0.010927227264775876 0.3993635254933065 -0.768907771968763 -0.3786491285062438 0.14619454003020402
0.6710907859402763 0.8494353458141591
00000000: 9bc3 0fd1 81e7 e5bf 7353 f4f8 d6a7 e53f
00000010: 26ae e774 2d95 bf3f 7374 1506 d680 f6bf
00000020: 4d51 ce52 438f ebbf 1d0c 77ed 3e5e df3f
00000030: 43ad d5b2 2a10 e5bf eff8 ae41 df94 9cbf
00000040: 956d 3fe2 f302 dd3f 9106 f6b4 e933 d53f
00000050: b99a 96e9 0a70 e8bf aec6 e79d 0361 863f
00000060: 7b60 4d08 2c8f d93f bfdf c778 e49a e8bf
00000070: 4bf7 e58d c93b d8bf 5f49 24b0 80b6 c23f
00000080: 6355 4862 9379 e53f 0fd3 ca08 932e eb3f
