VQC/qiskit-notebook/saved/model1b-qiskit/weights_0_23.npz (npz, 412 bytes, 1 tensors)

weights f8 [18]
00000000: 5a91 6044 ce6d e7bf 4011 68d0 552d e73f
00000010: f02c 4a46 1cb0 80bf 138b 4387 9a1f f5bf
00000020: 9c7e 6e73 bf0d e7bf 9f28 2f32 62b2 dd3f
00000030: bcd6 1585 54b0 e5bf 6304 7f6e 019e bfbf
00000040: f064 af93 ba2a e33f 7ca4 ae2e 95da d13f
00000050: 0a45 a9dd 51cb e7bf d217 ba2d 0fff bbbf
00000060: eeb1 a4ca 849a d83f 5608 b9c1 2ea2 e3bf
00000070: 26d8 76bc d0ba d4bf 0075 1a3f 7d9d 99bf
00000080: 6608 1f78 9ded e83f 3ae4 f537 e3ce e93f
-0.7321540198795831 0.7242840834083282 -0.008148404021332628 -1.3202157291168006 -0.7204282049678628 0.46401266957094295 -0.6777746772119921 -0.12350472400341199
0.5989659199214241 0.27896623190697034 -0.7435693101234915 -0.10936064592723874 0.38443107404125854 -0.6135476859710802 -0.3239023056479503 -0.025014836288950626
0.7790057512395492 0.8065048306444915
