VQC/qiskit-notebook/saved/model1b-qiskit/weights_0_38.npz (npz, 412 bytes, 1 tensors)

weights f8 [18]
000000 b8 e0 81 d6 de ab e3 bf 28 97 e0 d6 15 30 e3 3f
       -0.6147302808376685 0.5996197888204948
000010 c7 c9 13 c1 2d e4 c4 3f 01 83 ce 88 04 63 f5 bf
       0.16321346213915275 -1.3366742462168875
000020 98 0d e2 74 04 07 ee bf c4 12 27 6a 73 d1 dc 3f
       -0.9383566172477229 0.45028386465518744
000030 8e 69 e9 d4 eb 87 e7 bf 96 a0 09 e1 40 e3 ba bf
       -0.7353419454987475 -0.10503011221010392
000040 ef 66 8f 65 bf 8f df 3f ea ff 45 38 b5 c0 d7 3f
       0.4931486598776322 0.37113695617153886
000050 04 57 aa 0b cc e7 ea bf f2 0f 2c 48 38 a9 b4 3f
       -0.840795538696256 0.08070709001555068
000060 22 67 fd 84 60 02 d7 3f 74 23 b4 56 23 23 e6 bf
       0.35952008235254784 -0.6917893117362
000070 81 97 3c a5 ae 17 e2 bf 64 b0 aa 4f f8 ae b1 3f
       -0.5653908946303404 0.06907607979764091
000080 10 73 fd 07 93 ff de 3f c4 16 b7 e6 d1 b6 e8 3f
       0.4843490198161797 0.7723168855815961
